modelo_bodyfat_avancado.pth (torch, 50413 bytes, 7 tensors)

layer1.weight f4 [128, 17]
000000 62 7a f4 3d 22 89 d3 3e df f5 7f 3c 92 34 0e 3e
       0.11937405 0.41315562 0.015622585 0.13887241
000010 a1 5f 69 bd 36 da 82 be 34 ca 4b 3d 83 82 25 bd
       -0.056975964 -0.25557107 0.049753383 -0.04040767
000020 b9 bc 0c bd a8 9d 86 bc e9 54 26 bd b5 10 82 bd
       -0.034359667 -0.016432598 -0.04060832 -0.06350843
000030 82 5f 43 3e 41 19 42 3d 1f 52 10 bd 1b 19 24 3d
       0.19079402 0.047387365 -0.035234567 0.040063005
000040 3f 9b 10 3e 16 fa 02 3e e4 ed 8f 3e f3 56 70 be
       0.14121722 0.12790713 0.28111184 -0.23470668
000050 ef eb 5c 3e af a0 35 be 1c 47 1a bd ba 88 a4 3e
       0.21574377 -0.17737077 -0.03766547 0.32135564
000060 f4 9e a0 3d 46 1a 84 bd ef 99 d1 bb 42 e0 9c bc
       0.07842818 -0.06450324 -0.006396524 -0.019149903
000070 32 e4 93 bd 67 86 2f 3e 3e 97 f8 bd c3 d6 91 3d
       -0.07221259 0.17141114 -0.12138222 0.07121041
000080 a2 83 48 3d b1 7d c1 3d dc 08 cb be 3a 09 6c 3d
       0.04895366 0.09447802 -0.39655197 0.057625987
000090 e0 37 3a 3e ea 8c 98 be cc 01 d9 3d 89 a8 22 be
       0.18185377 -0.2979501 0.10596046 -0.15884604
0000a0 d9 27 f4 bd 84 e5 48 3d a2 73 08 bd 29 5e 98 bd
       -0.11921663 0.04904701 -0.0333134 -0.074398346
0000b0 2b 47 a7 3d f2 f5 90 bb 9f d3 c2 3d f9 47 6e 3e
       0.08167871 -0.00442385 0.0951302 0.23269643
0000c0 43 91 92 bd e6 8b 9b 3d 7f 78 47 be 1c 92 66 3e
       -0.07156613 0.07595043 -0.1947956 0.22516674
0000d0 1f 67 ec 3d d8 1f 18 3d 34 d8 2b bd c2 58 1a 3e
       0.11543106 0.037139744 -0.041954234 0.15072921
0000e0 3a 8c fd bd e6 ba 68 3e 5e 70 62 3d ea b6 a6 bc
       -0.12380262 0.22727546 0.055282943 -0.020350892
0000f0 87 3a 75 be 99 45 45 3d 4b 7f ff bd fe 10 2c bd
       -0.23948108 0.048162077 -0.12475451 -0.042008393
000100 9d 48 b3 3c a7 8b 6b 3c 09 01 b4 3e b8 18 d6 bc
       0.02188521 0.014376557 0.3515704 -0.026134834
000110 d4 b7 72 3e 19 5a 53 be 70 10 cd 3d 25 0c 66 3d
       0.23702937 -0.20639838 0.10012901 0.056163926
000120 6a 87 0e be 63 65 5e be e0 04 74 3e d2 1b c9 3d
       -0.13918844 -0.21718363 0.23829985 0.098197594
000130 fa e2 5a 3e 6c e1 a1 be b9 69 b6 bb 49 25 e2 3d
       0.21375647 -0.31617296 -0.0055668023 0.11042268
000140 ad 3b 88 3e 46 88 57 be 06 e6 52 bd 6d ff 08 bd
       0.2660803 -0.21048078 -0.0514889 -0.033446718
000150 04 0a 8a 3c ce d7 a3 3e 7c 5a fc 3c a7 88 8b be
       0.016850479 0.32000583 0.030804865 -0.27252695
000160 04 02 0a be 35 7f 57 be 60 a1 ee 3d 04 52 a6 3e
       -0.13477331 -0.2104462 0.116518736 0.32484448
000170 c9 ed 88 bd 69 6c ff 3d 51 d1 76 3e db b5 c1 bd
       -0.06685979 0.124718495 0.24103285 -0.09458514
000180 d4 08 5e 3e e6 5c 36 be 72 1f 93 bd fa 45 40 bd
       0.21683055 -0.17808875 -0.07183732 -0.046941735
000190 7c 6b 05 bc 06 f5 23 be ae c4 02 3e 92 b7 f6 3d
       -0.008143302 -0.16011438 0.1277034 0.12046732
0001a0 43 f6 03 be 42 af 86 bc be 4a 29 be b3 b3 31 3b
       -0.1288691 -0.016440991 -0.16532418 0.0027115166
0001b0 f0 a5 92 3e b9 79 b8 bd 16 01 19 3e ed 45 c3 bd
       0.28642225 -0.09007592 0.1494182 -0.09534822
0001c0 e7 52 9f bd 18 ae e8 3d 13 03 14 3c 7e 83 b8 bd
       -0.07779484 0.11361331 0.009033936 -0.09009455
0001d0 42 91 b4 bd 84 d1 6a 3e cb be 9b 3d 54 78 3c be
       -0.08816768 0.22931486 0.0760475 -0.18405277
0001e0 7e 75 6c 39 cf 25 94 bc 7c 1c 4e be 75 68 61 3d
       0.00022550483 -0.018084435 -0.20128053 0.05503126
0001f0 03 4c 67 be 7d 63 2c 3e b2 8f b0 3c 99 69 17 3e
       -0.2258759 0.16834827 0.021552894 0.14786376
000200 10 af 33 3e c0 c5 6b bd 0b ce 5d 3e b0 9e 57 be
       0.1754725 -0.057561636 0.2166063 -0.21056628
000210 c5 c2 82 be 53 5c 2b be 47 61 89 3e f8 8f 82 3d
       -0.25539222 -0.16734438 0.2683203 0.06375116
000220 ce 55 21 be 1e c9 9c 3d 26 8b a1 be 5d 8b 1e bd
       -0.15755388 0.076555476 -0.31551474 -0.038707126
000230 42 13 61 3d f7 f0 05 3e 4f 36 03 3d 26 f1 8c 3e
       0.054950006 0.13080202 0.032034215 0.27527732
000240 79 07 ec 3c 21 cf de 3d 15 08 8e bd 6b 91 11 be
       0.028812157 0.108793505 -0.06935135 -0.14215629
000250 d7 64 0c be 3e f6 40 3e 3c 5e 6d bd 51 69 82 3e
       -0.13710342 0.18843934 -0.057951197 0.25470975
000260 c2 d8 f3 3c cd c5 3e bd e7 04 09 be 5f 44 04 3e
       0.029766444 -0.046575356 -0.13380776 0.12916707
000270 a5 b7 e6 bd 0f dc e8 bb 08 e8 ff bd ca 08 e0 3d
       -0.11265496 -0.007106311 -0.12495428 0.109391764
000280 48 77 5a 3e c8 fe 44 be 2f 14 16 3e 94 a2 51 be
       0.21334565 -0.19237816 0.14656137 -0.20472175
000290 4f 0d f5 3c 84 89 bd 3d 75 5d b1 bc b5 07 33 bc
       0.029913573 0.09254745 -0.02165101 -0.0109271305
0002a0 56 ad e1 3d 12 94 da bd bd 77 7f be 28 cb 16 be
       0.11019389 -0.106727734 -0.2494802 -0.14725935
0002b0 93 50 38 3e 32 9b 4c 3c 3f 6b a4 be 98 c8 ac 3d
       0.17999487 0.012488173 -0.32113072 0.08436698
0002c0 01 0e 98 bc 70 7e 32 bd e6 0d 20 3e fc 8a e8 3d
       -0.018561365 -0.04357761 0.15630302 0.11354634
0002d0 f8 c9 0a 3e 6a f1 01 be d7 fd 97 bc 9e 27 f4 bd
       0.13553607 -0.12689748 -0.018553657 -0.11921619
0002e0 06 e1 b4 bd 18 1f 9f bd a1 2d 4b 3e 4f 37 86 3e
       -0.08831982 -0.077696025 0.19841625 0.26214072
0002f0 a1 56 4a be de 10 4d bd fe 67 6d 3d fd 52 19 3e
       -0.19759609 -0.050064914 0.057960503 0.14973064
000300 56 28 e7 bb e6 3c 60 3d 65 25 27 bd 92 14 f0 3c
       -0.007054369 0.054745577 -0.040807147 0.029306684
000310 f4 55 1c 3e 5a 89 10 be a8 e6 f4 bc 6f f5 1d 3e
       0.15267164 -0.14114895 -0.029895142 0.15425657
000320 03 76 fe 3d d1 91 f8 bd 0d bc 3f 3d e0 0a dd 3d
       0.12424853 -0.12137187 0.0468102 0.1079309
000330 47 b3 b2 be 1a 16 d9 3d 4e 34 77 bd 0d 61 4c be
       -0.34902403 0.10599919 -0.060352616 -0.19958897
000340 e8 90 3a 3e 2d 97 88 3e a8 20 d7 bd 38 90 14 3e
       0.1821934 0.26677838 -0.105042756 0.1450814
000350 8e 3a 84 be 5b 37 00 3e b8 dd 15 3d 52 68 81 bc
       -0.25825924 0.12521116 0.0365884 -0.015796814
000360 16 05 f1 3d 81 eb 3e bd e3 57 a1 3c 75 51 8f 3e
       0.11768548 -0.046611313 0.019695228 0.27991834
000370 a9 79 3b 3c 4f 47 34 3e 04 37 cc bd c0 2b d0 bd
       0.01144258 0.17605327 -0.09971431 -0.10164595
000380 dd 0a 42 3e 47 3f 21 3e e0 fc 6d bd 54 27 9e 3d
       0.18949457 0.15746795 -0.05810249 0.07722345
000390 fe 4a 0e 3e fc d0 06 be 74 44 66 bb b7 8f ee 3d
       0.13895795 -0.13165659 -0.0035136016 0.11648505
0003a0 21 64 76 3e 01 bc 79 be a8 57 0f 3e 5f 1f e1 3d
       0.24061634 -0.24388124 0.13998282 0.10992312
0003b0 82 45 90 be 4d a2 e9 bd 1d fb 31 be 1c 3b 86 bd
       -0.2817803 -0.114079095 -0.17380948 -0.06554243
0003c0 c3 c3 ae 3d a7 1c f2 bc 69 d3 21 3e ba 7f 4b bc
       0.08533432 -0.029554678 0.15803303 -0.012420589
0003d0 7e 10 c0 3d b0 84 ae bd 6b ed f7 3c 03 c5 23 be
       0.09378146 -0.08521402 0.030264577 -0.15993123
0003e0 b8 65 99 3e aa 3b 80 3d 9c ec 62 be 29 ed 54 be
       0.29960418 0.0626138 -0.22160572 -0.20793594
0003f0 7f d1 fa 3d a1 b8 a4 3e 94 12 2d 3e d9 d2 47 bc
       0.122469895 0.3217211 0.16901618 -0.012196266

layer1.bias f4 [128]
000000 a5 ae 61 3d f1 5e 36 3e 5a 26 dc 3c 18 86 ca 3c
       0.055098195 0.17809655 0.026873756 0.024722144
000010 78 f7 e1 3c a4 79 9b 3d ae bd 7a bd 89 9c c5 3e
       0.027583823 0.075915605 -0.06121605 0.3859599
000020 99 ff 25 3e 5c 4f 9d 3e e6 06 38 3e e8 a0 05 bd
       0.16210784 0.3072461 0.17971382 -0.032624155
000030 30 32 4d 3e da c6 16 be 4d d1 72 3e fb b6 cf bb
       0.20038676 -0.14724293 0.23712654 -0.0063389516
000040 f0 1e 86 be 22 a1 45 3e e2 10 97 3e 64 8d ec 3d
       -0.26195478 0.19299749 0.29505068 0.115504056
000050 b3 98 55 3e 78 dd b8 3d 89 e6 2c 3e e8 bb f6 bd
       0.20859031 0.09026617 0.16884817 -0.12047559
000060 c9 59 42 bd 0e 2b a7 3e 71 6f a7 3e 21 3f 8c 3e
       -0.047448907 0.32650036 0.3270221 0.27391914
000070 4d 0e 6b 3e c1 6c 89 bd 6d 01 ee 3d f7 a8 fe be
       0.22954674 -0.06710196 0.11621366 -0.49738285
000080 76 7c 31 3e 7c b8 05 bf 91 3d b2 3e c0 6b 04 3e
       0.17332634 -0.52234626 0.34812596 0.12931728
000090 21 19 20 bd ea a1 04 bd 33 e7 9d 3e 86 1d 6f bd
       -0.039086465 -0.032380976 0.30840454 -0.058377765
0000a0 5b 10 01 3e a4 18 b5 bc 81 3f d3 3e 80 87 ee 3e
       0.12603895 -0.022106476 0.41259387 0.46587753
0000b0 35 96 33 3d 25 0d 4f bd 3f 5c df bd e9 f9 95 bd
       0.04384442 -0.050549645 -0.109062664 -0.07323057
0000c0 b2 04 cb 3c 8e fd e9 3c 26 a1 ad 3d 53 7b 4d 3d
       0.024782512 0.028563287 0.08478002 0.05016644
0000d0 72 9d 07 bf 2a 7c a4 be a1 6d 9f 3e 9b 1d 1f 3e
       -0.5297462 -0.3212598 0.31138328 0.15538637
0000e0 d4 cc 87 3d 90 12 92 3e 99 9e 2c 3e 8a 8b 01 3e
       0.06630865 0.28529787 0.16857375 0.12650886
0000f0 2b 4d 43 3e 00 89 90 be 8c ed 4e 3e 4b 89 dc 3d
       0.19072406 -0.28229523 0.20207804 0.10768374
000100 eb 23 97 bc 74 67 9f 3e d9 58 a2 3d 7b 76 c5 bd
       -0.018449744 0.31133616 0.079271026 -0.09641739
000110 bb b4 ba bc bc 5d 20 be 7c 63 ed 3c 0b 43 1b be
       -0.022791257 -0.15660757 0.028978102 -0.15162294
000120 2a 5f 51 3d 7b 09 ce 3d 01 8c 0d 3e 8d 58 90 3e
       0.051116146 0.10060402 0.13822939 0.2819256
000130 08 1c d8 bd 06 b8 b5 bd 9e 2c ad be 58 f3 ec bc
       -0.105522215 -0.0887299 -0.33823103 -0.02892463
000140 08 7d a8 3e be 0e 81 bd 01 11 85 3e 1e aa 6d 3c
       0.3290789 -0.0630164 0.25989535 0.014505891
000150 30 e9 f3 3d 23 f3 ca 3b db b0 67 3d e6 bf 4c 3e
       0.11909711 0.006193535 0.056565147 0.19995078
000160 b3 61 0a be 93 d7 54 3e b5 0c 98 3d fb c7 46 3e
       -0.13513832 0.2078536 0.07424299 0.19412224
000170 cb b4 f3 3d fe 30 c4 bd d8 2f 6a 3e 59 87 d3 3d
       0.11899718 -0.09579657 0.22869813 0.1032855
000180 7f b8 f1 bd 6a 25 a8 be 27 20 ce 3e f7 e6 f9 bd
       -0.11802768 -0.32841045 0.40258905 -0.12202256
000190 d6 f9 f8 bd a0 c7 84 3e f1 ba b0 3e 70 60 bc 3e
       -0.121570274 0.25933552 0.34517625 0.36792326
0001a0 02 5d 71 3d 4e e6 41 3e a6 81 01 3d bb 46 c1 3d
       0.05892659 0.1893551 0.031617783 0.09437319
0001b0 4b 35 eb bd 2e 6d d1 3d b0 0e 39 3e a1 ff 1a 3e
       -0.11484774 0.102259025 0.18072009 0.15136577
0001c0 c2 d1 f4 3d 72 83 88 3e 94 d4 e9 3d 7e 66 8b bd
       0.11954071 0.26662785 0.11417499 -0.06806658
0001d0 0b 09 99 3d e0 8e b5 3d 50 49 93 3e 53 9c 6f be
       0.07472428 0.08865142 0.2876687 -0.23399477
0001e0 cf 11 3c 3e 91 df b9 bd 0b e4 5e bb f1 a6 cc 3d
       0.18366168 -0.09075845 -0.0034010436 0.09992779
0001f0 77 d8 ba 3e 32 b4 b4 3d ce 1b 0e bc 8e 91 36 3e
       0.36493275 0.08823432 -0.008673621 0.17828962

layer2.weight f4 [64, 128]
000000 3b 76 97 3d f2 79 32 3d c0 2f 15 3e b0 6d ef 3d
       0.073955975 0.043573327 0.14568996 0.11690843
000010 58 60 15 3e 6e 62 8b 3b a4 d3 c3 3d d8 04 9b 3d
       0.14587533 0.004253677 0.095618516 0.07569283
000020 dd 7f d5 3d c3 42 4c 3d 0b 35 0d 3d 60 d8 bf 3d
       0.104247786 0.049868356 0.034474414 0.09367442
000030 28 d7 f5 3c 63 a0 c6 3c f7 31 fc bc 5d fe 01 3d
       0.030009821 0.0242464 -0.030785544 0.03173672
000040 9a 93 be bc cf 54 83 3d 63 71 15 3e 42 5a b9 3d
       -0.023263741 0.0641266 0.14594035 0.090504184
000050 14 1e 15 3d 63 13 48 3d 17 15 21 3e 98 7d 31 ba
       0.036405638 0.048846614 0.15730701 -0.0006770729
000060 8e 37 60 3e 29 49 5a bc dd 3a 30 3e a4 08 9a 3d
       0.21896192 -0.013323107 0.17209955 0.07521179
000070 fa 74 a4 3d 13 d8 13 bd 4e ee dd 3c 08 ee 8b bd
       0.08030124 -0.036094736 0.027091172 -0.0683251
000080 89 8f a7 3d 74 9f dd bd b4 c6 f0 bc cb 27 c3 3d
       0.08181674 -0.10821429 -0.029391624 0.09529074
000090 05 f6 90 3d ed 97 19 3d 52 80 16 3e 29 f7 09 3e
       0.070781745 0.037498403 0.14697388 0.1347319
0000a0 5a da 41 3d ce e3 74 3e 3f 8a 7f 3d b6 d3 a0 3d
       0.047327377 0.23915026 0.0623877 0.07852881
0000b0 1f 81 a1 3d 91 6d ca 3d c7 2b 16 bd c0 17 0d 3b
       0.07885956 0.098841794 -0.036662843 0.0021529049
0000c0 c7 05 12 3e 34 1c 08 3c 13 95 78 3b 3e c9 80 3d
       0.14260016 0.008307505 0.0037930652 0.06288384
0000d0 e1 bf af bc 33 be fd bd bc 86 a1 3d 01 db 47 bd
       -0.0214538 -0.12389793 0.07887027 -0.048792843
0000e0 6b c8 f8 3d 13 ab fb 3d 8a c0 c5 3d fd f1 83 bc
       0.12147602 0.12288489 0.096558645 -0.0161066
0000f0 e8 66 27 3d 10 7b 31 3e 99 14 4e bc 10 02 91 b9
       0.040869623 0.17332101 -0.012578153 -0.00027658092
000100 49 1d b6 3d 63 5c 4f 3d 74 be d9 3d 5c 82 a4 3c
       0.088923045 0.050625216 0.10632029 0.020081691
000110 91 9a 00 3e 8e cb eb 3d 3f c3 bb 3d b3 0d f6 3d
       0.12558962 0.11513434 0.091680996 0.12014332
000120 dc 15 aa 3d d3 17 cd 3c 38 09 dd 3d e1 0d 05 3c
       0.083049506 0.025035774 0.10792774 0.008120985
000130 eb 68 31 3c 25 04 82 3c 4d cf 02 bd d8 a5 a6 3d
       0.010828237 0.015871117 -0.03193598 0.08137101
000140 1a cd b8 3d ab d8 70 3d c5 12 0b 3c c6 47 8a 3c
       0.09023495 0.05880038 0.008488362 0.016879927
000150 fc e0 e3 3d f0 bc f4 3d 0e 76 bb 3d 3b 3e 73 3d
       0.11126897 0.119500995 0.091533765 0.05938552
000160 94 f7 3e 3e a9 52 a5 3d 34 f9 1f 3c b7 d6 07 3e
       0.18649131 0.08072407 0.0097640045 0.13265501
000170 bc 27 81 3c 25 22 95 3d f4 cb 47 3d 54 5b 6f 3d
       0.015766017 0.07281903 0.04877849 0.058436707
000180 c3 cd b8 3d 4f 1e 16 bd f5 83 56 bd e8 91 1d 3a
       0.09023621 -0.03665 -0.052371938 0.00060108164
000190 b8 a8 01 be 9a f4 7c 3d 8c 7b be 3d 2a 2a 20 3e
       -0.12662017 0.061756708 0.093009084 0.15641084
0001a0 60 8c 41 3d 8b d3 c1 3d d0 f5 b0 3b fd 58 bd bc
       0.047253013 0.09464177 0.005400397 -0.023113722
0001b0 96 ed cf bc c9 35 3b 3d a1 88 b3 3d a2 a8 0f 3e
       -0.025381844 0.04570559 0.08766294 0.14029172
0001c0 78 87 a3 3d 8c ac e7 3c f2 88 dd 3d 36 12 8e bb
       0.07984823 0.028280519 0.10817136 -0.004335667
0001d0 20 ef ef 3d 98 09 48 3c 52 32 bc 3d 05 6d a6 bd
       0.11715531 0.012209319 0.09189285 -0.081262626
0001e0 44 2a 54 bb 27 9f 28 3d d2 cc d9 3d df ad 82 3d
       -0.0032373825 0.041167405 0.106347695 0.063808195
0001f0 70 a0 8a bd 06 33 ce 3d 54 0e ae 3c 7c 24 c5 3d
       -0.06768882 0.10068326 0.021247067 0.096260995
000200 78 5f da 3c e6 c9 c5 bc 49 74 8e 3c 8e 96 57 3c
       0.026656851 -0.024144124 0.017389433 0.013158454
000210 5c cb f8 3d 8d da 0d 3e b3 f6 4e 3d 6f 5c 35 bd
       0.12148163 0.13852902 0.05052824 -0.044277605
000220 46 21 fb 3a 96 29 d1 3d 46 f0 95 3c b9 57 8e 3d
       0.0019159697 0.1021301 0.018303048 0.069503255
000230 b6 2d 53 3d 4a 84 00 be 2b 3c cf bc 94 49 6e bd
       0.051557265 -0.12550464 -0.025297245 -0.05817564
000240 9d 5f df 3d b5 a3 e3 3d f2 73 48 bc d0 12 d1 3d
       0.10906909 0.11115209 -0.012234675 0.10208666
000250 2d 4c 1d bd f8 e6 ef bc 5c bf 62 bd 66 d8 4f 3b
       -0.038402725 -0.02928494 -0.055358276 0.0031714677
000260 20 aa ed 3d 2d 92 64 3d 9a 26 22 bc 13 8b f9 3d
       0.116047144 0.055803467 -0.009896899 0.121847294
000270 77 ae 18 bd d7 19 92 3d 66 46 3c bc a4 90 bf be
       -0.037275758 0.07133835 -0.011491394 -0.3741504
000280 76 60 a7 3a 21 3a 78 be 81 07 c6 bc 9d e9 8b 3d
       0.0012769836 -0.24240924 -0.0241735 0.068316676
000290 dc 7b 89 bd 77 02 ab 3c 4d a5 c8 bb c8 60 de 3c
       -0.067130774 0.020875199 -0.006123221 0.027145758
0002a0 8b 28 bf 3d a2 c0 ed 3d f2 8e 83 3d 1c 52 fd bc
       0.09333905 0.116090074 0.06423749 -0.030922942
0002b0 8f ac 97 3d f1 9a 32 3d fc 37 1a 3d ce 76 f6 bc
       0.0740596 0.043604795 0.037651047 -0.030085947
0002c0 3b 57 7f 3d 78 f3 84 bc ee 5a 45 bd 94 8b 76 3d
       0.06233905 -0.016229376 -0.04818242 0.060191706
0002d0 c0 a4 99 be bb 9c 89 be 08 1f 39 3d 67 4d 0d 3b
       -0.30008507 -0.26877388 0.04519561 0.0021561028
0002e0 41 ca 7b 3d c5 73 79 3d 08 99 b7 bc 6f f6 00 bc
       0.06147218 0.060901422 -0.022411838 -0.007871254
0002f0 b1 b8 dd 3d 13 c5 e7 3d 97 2b 30 3d 51 64 56 ba
       0.10826243 0.11316886 0.04301032 -0.00081784005
000300 35 6c fe bb 3e ad a8 bc 22 a1 a7 3d df ed 90 bc
       -0.007764364 -0.02059042 0.081850305 -0.01769155
000310 91 8b c0 bd 45 6e e4 3d 3b bc 42 bd fc 31 a4 bd
       -0.0940162 0.11153845 -0.04754279 -0.08017346
000320 c7 a3 95 bd aa 25 09 3b aa 22 aa 3d 31 5a 59 3d
       -0.07306629 0.002092699 0.08307393 0.05306453
000330 60 ee 23 bd 63 d7 0c bc 04 c1 11 3d c8 3d 45 bd
       -0.040022254 -0.008596274 0.035584465 -0.048154622
000340 c9 eb f2 bc 90 74 24 bc 74 74 c8 bc 4e c3 1f bb
       -0.029653447 -0.010037556 -0.024469592 -0.0024377885
000350 75 06 75 bd 8c d3 ec 3c c2 5a 9a 3d 5b 3a a3 3d
       -0.05982061 0.028909467 0.07536842 0.07970115
000360 6f de 58 bc c3 b9 90 3d 3e 6c 39 3d 8b 86 ac 3d
       -0.013236626 0.07066681 0.045269243 0.084240995
000370 dc 60 60 bd 8d 04 98 3d dc c9 f0 3d 17 62 5c 3d
       -0.054779872 0.07422743 0.117572516 0.053804483
000380 95 65 d0 3d 29 88 14 be 86 70 99 3d 93 09 9e 3d
       0.10175625 -0.14505066 0.07492165 0.0771667
000390 74 dd 64 be b4 ce 44 bc e3 90 6b bd 57 4f c7 bd
       -0.22350103 -0.0120121725 -0.05751122 -0.0973193
0003a0 f8 db 8c bc d4 c7 a3 bd a7 b3 13 bd 49 be 38 3d
       -0.017194733 -0.079970986 -0.03606 0.045103345
0003b0 07 85 8b 3d fa 3c f9 bc db 2b a3 3d ad 93 b5 3c
       0.06812482 -0.030424584 0.07967349 0.022165144
0003c0 68 e3 82 bd 69 01 1e bd 99 20 f9 3a 69 fd bc bc
       -0.063910306 -0.038575564 0.0019006907 -0.023070054
0003d0 de f1 e3 bc 63 2e ff 3c 38 35 f1 3c 46 9f 19 3c
       -0.027825292 0.031150049 0.029444322 0.009376353
0003e0 d3 7a ac 3d b8 1d 9d bb 61 4d 82 3c 51 b0 15 3d
       0.08421864 -0.0047948025 0.015906038 0.0365451
0003f0 a4 17 2c 3d 23 8e 1e 3d 80 f0 17 bd d7 41 dc 3c
       0.042014733 0.03870977 -0.037094593 0.026886864

layer2.bias f4 [64]
000000 7f ce e8 3e d4 a3 e9 3e 27 24 1f 3e 05 4f 12 3f
       0.45470044 0.45632803 0.15541135 0.57151824
000010 ee 14 cc 3e fd 1e 83 bd 32 69 24 3f f9 4c df 3e
       0.39859718 -0.06402395 0.64223015 0.43613413
000020 6e 40 ca 3e 05 30 b4 3e 68 89 fd bd 9f 83 0a 3c
       0.3950228 0.35192886 -0.12379724 0.0084542325
000030 89 14 04 3f 65 bc e9 3e a0 1b 58 3e 9d ca dd 3e
       0.51593834 0.45651546 0.21104288 0.43318644
000040 23 2b 17 be 80 2c 0a 3f 81 e3 ef 3e 8a 59 0c 3f
       -0.14762549 0.5397415 0.4685326 0.54824126
000050 87 3d cf 3e 89 ea 05 3f a1 a2 b9 bd 1c 0d 0a 3f
       0.4047663 0.52311 -0.09064222 0.53926253
000060 18 2f f9 3e 3e a0 ff 3e 26 9c 08 3f 14 a6 db 3e
       0.48668742 0.49926943 0.53363264 0.42900145
000070 83 7a 1f 3f 7f 32 59 3e 6f f2 d8 3e 57 a1 0b 3f
       0.62296313 0.21210669 0.42372462 0.5454306
000080 9a ff 8a 3e 32 5d 05 3f ab 5b f1 3e 57 8c 00 3f
       0.27148134 0.5209533 0.4714025 0.5021414
000090 f3 4d f7 3e 36 67 04 3f 7b b9 97 be 31 25 ba 3e
       0.48301658 0.5171999 -0.29633698 0.363565
0000a0 b1 04 da 3a e5 b1 d4 3e ae 5a 00 3f 42 10 18 3f
       0.0016633478 0.41541973 0.50138366 0.5939981
0000b0 24 b5 db 3e 6e 9a f5 3e 1e 85 ed 3e bc a2 de 3e
       0.42911637 0.47969383 0.46390623 0.4348353
0000c0 d3 68 91 bd ce 76 07 3f ab 98 04 3f d5 16 11 3f
       -0.07100072 0.52915657 0.5179545 0.56675464
0000d0 4f c3 0e 3f 2c b4 0f 3f 53 5e db 3e c4 c6 dc 3e
       0.5576677 0.56134295 0.428454 0.43120396
0000e0 c6 77 d4 3e 67 3d c7 3e 6e e3 d6 3e c0 ed f7 3e
       0.4149763 0.38914034 0.4197039 0.48423576
0000f0 ac cf 09 3f 11 1e 0a 3f 95 82 11 3f b1 18 d2 3e
       0.5383251 0.5395213 0.5683988 0.41034463

layer3.weight f4 [16, 64]
000000 52 2f bd 3c 21 f9 11 3e 20 e1 1a bf 19 b3 0c 3e
       0.023093853 0.14255191 -0.60499763 0.13740195
000010 60 81 43 3e 3d 2b 57 be 0d a9 c7 3d 58 46 ca 3d
       0.19092321 -0.21012588 0.09749041 0.09876698
000020 17 ae 82 bc db 11 02 3e 1a b8 39 be c5 e0 01 3e
       -0.015952153 0.12702124 -0.18136635 0.12683399
000030 d5 49 bb 3d 77 7d 05 3e e1 37 fd be 7a 8c 0d 3e
       0.09144942 0.13036142 -0.49456695 0.13823119
000040 34 4e 8c be f6 5c 50 3d 12 7c b6 3d d1 40 73 3e
       -0.27403414 0.050869904 0.08910383 0.23755194
000050 76 a5 17 3e 31 62 06 3e 8b a3 10 bd a0 4b 15 3e
       0.14809212 0.13123395 -0.035312217 0.1457963
000060 22 1f ba bc c1 b5 0f 3e b4 89 d5 3d ef 6d 11 3d
       -0.022719923 0.14034177 0.104266554 0.03550523
000070 fc d0 3c 3e 1f a6 09 bf b5 92 14 3e 7f f5 0d 3c
       0.18439096 -0.53769106 0.1450909 0.008664488
000080 da fc 76 3e d7 38 1e bd 56 68 26 3e 51 57 f9 3d
       0.24119893 -0.038628425 0.16250739 0.121748574
000090 e3 22 29 3e c8 28 c6 3e 71 eb 42 be 18 0c 00 3e
       0.16517214 0.3870299 -0.19035126 0.12504613
0000a0 71 3d 55 3d 41 27 bf 3d cf 6e 2d 3e 0c 6c 00 3c
       0.05206055 0.09333659 0.16936801 0.00783826
0000b0 9d 7c 0b 3e b9 86 de 3b e7 51 89 bc 5c 18 d9 3d
       0.13621755 0.0067909625 -0.016762687 0.10600349
0000c0 58 1e 9a bd 59 0b 10 3e 5f b0 23 3e 5b ca 3d bc
       -0.07525319 0.14066829 0.15985249 -0.01158389
0000d0 86 21 8e 3c 18 99 a4 bd 17 ce 2b 3e 12 d9 25 3e
       0.01734997 -0.08037013 0.16777836 0.16196087
0000e0 7e cb c4 3c 42 b0 0b 3e 93 3c 29 3e c4 48 23 bd
       0.024022814 0.13641456 0.16527013 -0.039864317
0000f0 db 60 bb 3d 6b 19 dd 3d 18 0d 6b 3e 6a 72 7a bd
       0.09149333 0.10795864 0.22954214 -0.06114427
000100 85 5a 29 3e 16 e9 8c 3d 44 c2 04 bf c7 0d 89 3e
       0.16538437 0.06880395 -0.51858926 0.26768324
000110 d3 0c 33 3e 72 f1 95 be 34 a7 a9 3c 53 17 98 3d
       0.17485361 -0.2928577 0.020709611 0.07426324
000120 15 bd e5 3c 80 93 2e bb 89 44 ba be c2 ff 4a bd
       0.028044263 -0.002663821 -0.36380413 -0.049560316
000130 f4 fe 1d 3e a6 31 18 3e 07 26 13 bf f4 d8 a0 3b
       0.15429288 0.1486269 -0.574799 0.0049086753
000140 23 1f 94 be af ab 27 3e b0 71 1c 3e 8c 0d 04 3e
       -0.28930005 0.16374086 0.15277743 0.12895793
000150 62 e1 0e 3e 25 4a f6 3d 23 0e 81 3d 80 af a7 3c
       0.13953164 0.12025861 0.063015245 0.020469427
000160 24 3a d0 3c ce 3f 99 3d aa 25 77 3d d2 d1 48 3d
       0.025418349 0.07482873 0.060338654 0.049028225
000170 e3 fc 43 3d 40 5b 24 bf be ba 18 3c f1 bd 3d 3e
       0.047848593 -0.64201736 0.009321867 0.18529488
000180 a0 76 d9 3d 6b 28 02 3e 9c 0f 84 bd 37 24 ef 3d
       0.10618329 0.1271073 -0.0644829 0.11676829
000190 7a 3c 9d 3d 47 4e 7a 3e f3 b4 14 be a9 35 c3 3d
       0.076775506 0.24443923 -0.14522152 0.09531719
0001a0 dd 89 29 3d 4b 39 2b 3e 26 f8 ac 3c af 6a 07 3e
       0.041391242 0.16721074 0.02111442 0.1322429
0001b0 56 df c5 3d 56 72 45 bd a5 92 1b 3e 3f 69 92 3d
       0.096617386 -0.048204742 0.15192659 0.0714898
0001c0 93 27 9a bd 63 b7 7f 3d e9 8e f4 3d 42 4a aa bc
       -0.075270794 0.06243075 0.119413204 -0.020787362
0001d0 32 bf f3 3d 4e 66 1c 3e f0 47 4b 3c f5 b5 13 3e
       0.11901702 0.15273401 0.012407288 0.1442488
0001e0 e4 b5 d1 3d 6d f0 ff 3c bb 4f b6 3d b2 84 c4 3d
       0.10239771 0.031242574 0.08901926 0.09595622
0001f0 c0 d5 d7 3d 23 69 20 3e c2 fa 86 3e ea e2 28 3e
       0.105388165 0.15665106 0.26363188 0.16492811
000200 ee cf 1c bd c6 72 54 bc 63 0d 21 bd 42 05 c7 3c
       -0.038284235 -0.012966817 -0.039319407 0.0242945
000210 f7 f0 a2 bd c1 11 0b be 34 4f 99 bd 67 c0 81 bd
       -0.07956117 -0.13580991 -0.0748581 -0.06335526
000220 8a 32 a4 bc f6 da fd bd 54 d5 b4 3d 54 d2 02 be
       -0.02004363 -0.12395279 0.088297516 -0.12775546
000230 e0 1b a4 bd 80 c7 73 bd 8f a9 92 bc e8 a7 03 3c
       -0.08013129 -0.05951643 -0.017903117 0.008035637
000240 38 9d 8a 3d 55 de f3 3b 9e f9 62 bd 26 9b 90 bd
       0.06768268 0.0074422755 -0.055413835 -0.07060842
000250 d8 a2 07 bd a1 07 dd bc ab 3c c7 bc 79 b4 0d be
       -0.033114284 -0.026981177 -0.02432092 -0.13838376
000260 36 ff 3f 3d be d9 20 bd 23 20 1e be 63 a9 91 bd
       0.046874247 -0.039270155 -0.15441947 -0.07112386
000270 d8 fd 94 3c bd c5 43 3d 7e ef c2 bd 15 66 fd bd
       0.018187448 0.047796 -0.09518336 -0.12372986
000280 1e ea e1 bc 66 54 08 be fa d4 9e bc ce e7 bd 3d
       -0.027577456 -0.13313445 -0.019388665 0.09272729
000290 fb 57 2e be 21 af 03 bc 21 ec b3 3d b2 61 e9 bd
       -0.1702575 -0.008037359 0.087852724 -0.11395587
0002a0 6a 72 d7 bc 7c c1 c7 3c 1b 84 30 bd f4 53 bc 3d
       -0.026299674 0.024384253 -0.043094736 0.091957
0002b0 01 44 57 bd bc 58 c7 bb c8 5e b9 3d 03 48 8e bd
       -0.052555088 -0.006083576 0.09051281 -0.06947329
0002c0 10 66 3e 3d cd 04 06 3d a1 a2 8b 3d cc 53 88 bc
       0.046484053 0.032719422 0.068181284 -0.01664152
0002d0 dc 59 57 bc ce 4b a0 bc 77 6d f0 bd 5a f0 76 3d
       -0.013143983 -0.019567396 -0.11739629 0.06028781
0002e0 91 e7 54 3d e4 f0 a6 bc e5 dd 60 bd 87 72 92 3d
       0.05197865 -0.020378537 -0.054899115 0.071507506
0002f0 a2 17 8a bd 81 d4 8d bd 96 89 55 00 54 15 0b be
       -0.06742789 -0.069252975 7.855374e-39 -0.13582355
000300 0f 4e 9a 3d ef 81 89 bd 62 81 54 bf fe 52 61 3e
       0.0753442 -0.06714236 -0.8300992 0.22004315
000310 86 84 45 3d a2 ce 0a bf 43 e6 62 3d ff c6 19 3e
       0.048222087 -0.54221547 0.055395376 0.15017317
000320 54 92 d0 3d 2a 25 00 be 9b 45 21 bf ca ef 9b 3d
       0.1018416 -0.12514177 -0.62996835 0.076140955
000330 87 ea 9c bd a6 73 12 3e f0 38 74 bf 2b 91 c7 3d
       -0.0766192 0.14301929 -0.9539938 0.097444855
000340 45 33 ae be 3a 24 93 bd 5a 0e 72 3b 3f f0 cd 3d
       -0.3402349 -0.07184644 0.0036934824 0.10055589
000350 5c 7c 98 3d f7 d8 bf bd 18 f7 c2 3d ac 63 04 3d
       0.07445595 -0.09367555 0.09519786 0.032321617
000360 2a 3b 0b 3d 61 9c 25 3b d2 eb 47 3d c1 27 e4 bd
       0.03399197 0.002527021 0.04880888 -0.11140395
000370 09 59 b7 3c e4 9e 1e bf 58 2a ec bb 57 3c c4 3d
       0.022381322 -0.619612 -0.007207196 0.095818214
000380 f8 1c 87 3e 74 28 92 bc 0c 90 43 3c 39 09 a9 3d
       0.2638929 -0.017841555 0.011936199 0.08253712
000390 76 04 92 bd 91 e6 01 3f ff d0 00 bf ca d9 dc 3d
       -0.07129757 0.5074244 -0.503189 0.107837275
0003a0 f9 8f 97 3d b2 f5 c8 3d a2 32 56 3d 77 7e 5c 3d
       0.074005075 0.09812488 0.05229438 0.053831544
0003b0 b0 fb 3e 3c 12 3f 20 3c 93 04 04 be b2 80 20 bd
       0.011656687 0.009780662 -0.1289237 -0.039185233
0003c0 e1 88 55 3d 8c 4d c9 3d e1 ab c6 bd cf d0 7f bd
       0.05213249 0.09829244 -0.09700752 -0.062454995
0003d0 20 84 10 ba 8f f0 08 be 23 23 a5 3d 12 4e 28 bd
       -0.0005512852 -0.13373016 0.080633424 -0.04109008
0003e0 61 d1 b1 3d df a2 ef bd 98 92 87 bd 9c 69 8d bd
       0.08682514 -0.11700987 -0.066197574 -0.06904909
0003f0 b5 d6 01 3e d0 aa 2d 3e 29 8a 75 3e 10 59 e4 bc
       0.1267956 0.16959691 0.23978485 -0.0278745

layer3.bias f4 [16]
000000 43 7c 6a 3f 45 f0 87 3f fe f3 85 bd 0e 5d d2 3f
       0.9159586 1.06202 -0.065406784 1.6434648
000010 3e b5 a1 3d 7e cb 9a 3f 88 df a4 3f d2 c7 81 bd
       0.07895897 1.2093351 1.2880716 -0.06336941
000020 f6 9c c3 3f 0a 47 81 3f 19 b6 78 3d 71 18 70 3f
       1.5282276 1.0099804 0.060720537 0.93787295
000030 54 da 8e 3f be e5 94 3f b9 43 b5 3f d5 c1 f3 bd
       1.1160378 1.1632612 1.4161292 -0.11902205

output.weight f4 [1, 16]
000000 e5 46 b9 3e 0a 34 82 3e 42 97 48 be 84 f7 95 3e
       0.361869 0.25430328 -0.1958895 0.29290402
000010 89 5b bd bd d2 6b 46 3e 1b 23 5b 3e 0b e2 9f bd
       -0.092459746 0.19377068 0.2140011 -0.07806786
000020 28 cb 9d 3e 36 20 72 3e 6d 18 b9 bd f3 ab 8e 3e
       0.30819058 0.236451 -0.09037862 0.27865562
000030 ad d4 c4 3e 4a 13 93 3e c8 2e 3a 3f 57 fa e2 bd
       0.3844351 0.28725654 0.7272763 -0.11082905
