modelo_bodyfat_mlp.pth (torch, 18087 bytes, 7 tensors)

layer1.weight f4 [64, 14]
0	0xbef36d0b	-0.4754413
1	0xbe9bf5ca	-0.3046096
2	0xbda9ab14	-0.08284584
3	0x3c9cf2ab	0.019158682
4	0xbd87be0d	-0.06628046
5	0xbe72d7a5	-0.23715074
6	0x3e03732b	0.12836902
7	0xbe15c7a8	-0.14626944
8	0x3e89acaa	0.26889545
9	0x3dd414e7	0.10355549
10	0x3e91c9c0	0.28474236
11	0xbd7495af	-0.059713062
12	0xbe38c1d9	-0.18042697
13	0xbd3b3bbe	-0.04571127
14	0x3e7d9e3f	0.24767397
15	0x3dc8bc7a	0.09801574
16	0xbd862250	-0.06549513
17	0x3e9c1af7	0.30489323
18	0x3cb00113	0.021484887
19	0x3dff1551	0.12455238
20	0xbd29de97	-0.041472044
21	0x3e3febd6	0.18742308
22	0x3ed1068c	0.40825307
23	0x3e440cab	0.19145457
24	0x3e705c65	0.23472746
25	0x3ebdc5e1	0.37065032
26	0x3d01eb7a	0.03171871
27	0x3eacd232	0.33754116
28	0x3edfcbc0	0.43710136
29	0x3d9c17e9	0.07621748
30	0x3e819bd5	0.25314203
31	0x3da1256d	0.078684665
32	0x3e7b9338	0.24567878
33	0x3e83ceed	0.2574381
34	0xbd5efddb	-0.054441314
35	0xbe0a417f	-0.13501547
36	0x3e18be9f	0.14916466
37	0xbe5d4ac6	-0.21610555
38	0x3d2a06b1	0.041510288
39	0x3e6583e3	0.22413592
40	0x3e35786f	0.17721723
41	0x3e615b58	0.22007501
42	0xbead320b	-0.33827242
43	0xbe5ebbd1	-0.21751334
44	0xbe2348d1	-0.15945746
45	0xbdc2ed85	-0.095179595
46	0xbedb249d	-0.4280137
47	0x3dfb3261	0.122654684
48	0xbd731e25	-0.05935492
49	0xbc948fd4	-0.018134989
50	0x3eb7a8bf	0.3587093
51	0x3e9a33f4	0.30117762
52	0x3e9d36b6	0.30705804
53	0xbe043996	-0.12912592
54	0xbd96cd47	-0.07363372
55	0xbe285a31	-0.16440655
56	0xbe9a4377	-0.30129597
57	0xbe703656	-0.23458228
58	0xbb5008a6	-0.0031743436
59	0xbd54938a	-0.051898517
60	0xbeb69263	-0.3565856
61	0xbe719494	-0.23591834
62	0xbe8ae4d6	-0.27127713
63	0x3e088253	0.13330965
64	0x3cce2e40	0.025168538
65	0x3caea8c8	0.021320716
66	0x3e36924f	0.1782925
67	0xbe1eee3b	-0.15520565
68	0xbdc7d2b2	-0.09756984
69	0x3c42b883	0.011884811
70	0xbe0d0510	-0.13771462
71	0x3e7dc156	0.24780783
72	0x3e297f2c	0.16552418
73	0xbeb02af7	-0.3440778
74	0x3e542383	0.20716672
75	0x3d169d11	0.036770884
76	0x3ea35a95	0.31905046
77	0x3ea89dd2	0.32932907
78	0xbdf7dc76	-0.121025965
79	0x3d13bf7d	0.03607129
80	0xbe0e3e85	-0.13891037
81	0x3e8a71bf	0.27039906
82	0xbd49f569	-0.049306307
83	0x3e46aebb	0.19402592
84	0x3e44470b	0.19167726
85	0xbee6e765	-0.45098415
86	0xbd68c987	-0.056832816
87	0xbe2ecf62	-0.17071298
88	0xbe94358d	-0.28947106
89	0xbe370822	-0.17874196
90	0x3e62da21	0.22153522
91	0x3e16932c	0.14704579
92	0x3e90c566	0.28275603
93	0xbe4f25c4	-0.2022925
94	0xbe8ef159	-0.2791851
95	0x3eae3bae	0.34029907
96	0x3e0173b8	0.126418
97	0xbe8aae28	-0.27085996
98	0x3e8ffe67	0.2812378
99	0xbeb3b881	-0.35101703
100	0xbc95fe2e	-0.018309679
101	0x3df0cb64	0.11757544
102	0xbe820383	-0.25393304
103	0xbd07186e	-0.032982282
104	0x3ea74648	0.32670808
105	0x3bfb49cd	0.00766871
106	0xbd9edd60	-0.07757068
107	0x3c117185	0.008877163
108	0x3e229166	0.15875778
109	0x3e8de4f3	0.27713737
110	0x3e86cb42	0.26326948
111	0x3e7e3565	0.24825056
112	0x3e88f992	0.26752907
113	0xbda0ba4c	-0.07848033
114	0xbef804a2	-0.48441035
115	0x3c56d132	0.0131113995
116	0xbec68ad2	-0.38777786
117	0xbc762663	-0.015023801
118	0xbe6824d4	-0.22670299
119	0xbe95e884	-0.29278958
120	0xbeb08c45	-0.34482017
121	0xbe6c549f	-0.23079155
122	0x3e04ee61	0.1298156
123	0xbe41bdad	-0.18920012
124	0xbe332485	-0.174944
125	0xbe13d073	-0.14434986
126	0xbe562b4e	-0.20914957
127	0xbc22c60b	-0.009934912
128	0xbce6d531	-0.02817783
129	0xbdb742ea	-0.0894831
130	0xbd898054	-0.0671393
131	0xbd5bcc35	-0.053661544
132	0x3eb2916c	0.34876573
133	0xbdd75a35	-0.105152525
134	0x3e883032	0.2659927
135	0x3e05c5a7	0.1306368
136	0xbde40f8e	-0.11135779
137	0xbcb26f14	-0.021781482
138	0xbec207d5	-0.378966
139	0x3e0ca6bb	0.13735478
140	0xbd7b652b	-0.06137578
141	0xbf089550	-0.5335283
142	0xbdeb9c38	-0.11504406
143	0xbe52c0b9	-0.2058133
144	0x3dc6ad6c	0.09701046
145	0x3cb57f00	0.022155285
146	0x3eac6c0f	0.33676192
147	0xbdc8077c	-0.097670525
148	0xbc99072a	-0.018680174
149	0xbde0df1c	-0.10980055
150	0xbe059a6a	-0.13047186
151	0x3ea6b734	0.32561648
152	0xbd21d574	-0.039510205
153	0xbe7ab59e	-0.24483344
154	0xbeba90aa	-0.36438495
155	0xbe5e7b0c	-0.21726626
156	0xbb742a56	-0.003725668
157	0xbe8c14f2	-0.2735973
158	0x3d82db10	0.06389439
159	0x3e3ce648	0.1844722
160	0x3dbe774f	0.093001
161	0xbe0fa8a2	-0.14029172
162	0x3e00ad44	0.12566096
163	0xbbb3760e	-0.0054767197
164	0xbdfd0e50	-0.123562455
165	0xbe2e95e8	-0.17049372
166	0xbe27419f	-0.16333626
167	0xbe6361c3	-0.22205262
168	0x3c9ae593	0.018908298
169	0xbed8f94d	-0.423777
170	0x3e3c2612	0.18373898
171	0xbebc659f	-0.3679628
172	0xbe780e63	-0.24224238
173	0x3e55f044	0.20892435
174	0xbe2be60b	-0.16786973
175	0x3d84a002	0.064758316
176	0xbe074f68	-0.13213885
177	0xbe1ea101	-0.15491106
178	0x3de4b663	0.111676
179	0x3dea1140	0.114290714
180	0x3e4f2e25	0.20232446
181	0xbd0315dd	-0.032003272
182	0x3d8f2396	0.06989209
183	0x3ed46892	0.4148603
184	0x3e4f4041	0.20239355
185	0xbddbd7e0	-0.10734534
186	0x3e001919	0.12509574
187	0x3e693789	0.22775091
188	0x3dabaa22	0.0838206
189	0xbe07c2b3	-0.13257866
190	0x3d5f7410	0.054554045
191	0xbea652ba	-0.3248499
192	0xbcfc197d	-0.030773873
193	0x3dcac129	0.099001236
194	0x3e357dc2	0.17723754
195	0x3e380552	0.1797078
196	0xbe6b42b5	-0.22974665
197	0x3e1fc274	0.15601522
198	0x3e1646cd	0.14675446
199	0x3d8eabfe	0.06966399
200	0xbd982e2d	-0.07430682
201	0x3e8938d1	0.2680116
202	0x3e64e034	0.22351152
203	0x3dfd62df	0.12372374
204	0x3e36ff71	0.1787088
205	0x3e2475c9	0.16060556
206	0x3c9e7a49	0.01934542
207	0xbc259270	-0.010105714
208	0x3e22da99	0.15903701
209	0xbe3a229d	-0.18177266
210	0xbec23eea	-0.37938625
211	0x3d3864de	0.04501807
212	0xbe5e3e03	-0.21703343
213	0xbe745e6c	-0.23864144
214	0x3e2bb7e1	0.16769363
215	0xbe2bd475	-0.16780265
216	0xbe838056	-0.2568385
217	0xbc6fbefe	-0.014632938
218	0x3db96e42	0.09054233
219	0xbe092ab8	-0.13395202
220	0xbe4c56db	-0.19955008
221	0xbe1a6cb4	-0.1508053
222	0xbe8c9662	-0.27458483
223	0xbe840897	-0.25787804
224	0x3e91daae	0.28487152
225	0x3d1e9c4c	0.038723275
226	0xbd4eb0ab	-0.050461452
227	0xbf13c388	-0.5772023
228	0xbe180e5a	-0.14849225
229	0xbdf8b130	-0.12143171
230	0xbdcf031f	-0.10108017
231	0xbda8b6be	-0.0823798
232	0xbe5ab191	-0.21356799
233	0xbe19fb16	-0.15037188
234	0x3eab0af4	0.33406794
235	0xbdf5360f	-0.119732015
236	0x3e74f9e7	0.23923455
237	0xbe889e35	-0.26683202
238	0x3e3b27c9	0.18276896
239	0x3e336079	0.1751727
240	0x3e5a1fa0	0.21301126
241	0xbdc511b4	-0.09622517
242	0x3e5c502e	0.21514961
243	0xbd8a16fc	-0.06742665
244	0xbc2fcdba	-0.010730201
245	0x3c88c06d	0.016693318
246	0xbdd5a283	-0.10431387
247	0x3c245f28	0.010032453
248	0x3d3f6b1e	0.046733014
249	0x3eaedc44	0.34152424
250	0x3d82e934	0.06392136
251	0x3e8606cb	0.26177058
252	0xbef920b8	-0.48657775
253	0xbdfc2790	-0.123122334
254	0x3d419d64	0.04726924
255	0xbe58be27	-0.21166287

layer1.bias f4 [64]
0	0x3ea750f4	0.3267895
1	0x3e0ba4cf	0.13637088
2	0x3e5c1949	0.2149402
3	0x3edfccbb	0.43710884
4	0x3ec14152	0.37745148
5	0x3e42bb66	0.190168
6	0x3f1f70e5	0.6228164
7	0x3e5de0d5	0.21667798
8	0x3d907530	0.07053602
9	0x3ecbd2c9	0.39809254
10	0x3f19489c	0.5987642
11	0xbb7e3d41	-0.0038793834
12	0x3eff742f	0.4989333
13	0x3cf1dfab	0.029525599
14	0x3e513372	0.20429781
15	0x3c0c168a	0.008550296
16	0xbe565091	-0.20929171
17	0x3e149ea0	0.14513636
18	0x3e7b7313	0.24555616
19	0x3ee37d30	0.44431448
20	0x3edb36b0	0.4281516
21	0x3a4648f3	0.0007563971
22	0x3ee3b310	0.4447255
23	0x3eccacf1	0.39975694
24	0x3e901bca	0.281462
25	0x3d940938	0.07228321
26	0x3e8eaac5	0.27864662
27	0x3edc71b1	0.4305549
28	0x3ee2c512	0.44290978
29	0x3f0f6713	0.56016654
30	0x3ec720d6	0.3889224
31	0x3e67c686	0.22634324
32	0x3e889bf7	0.26681492
33	0x3e8e4c2a	0.27792484
34	0x3dd20f27	0.10256796
35	0x3dc6def9	0.097104974
36	0x3e0725af	0.13197969
37	0x3ca58158	0.020203277
38	0x3e487fdd	0.19580026
39	0x3eeb6dfa	0.45982343
40	0xbabbb644	-0.0014321287
41	0x3e02855c	0.12746185
42	0x3eb3988b	0.3507732
43	0x3e8fa13b	0.28052697
44	0x3eebb906	0.460396
45	0xbd593ebb	-0.05303834
46	0x3ec1288b	0.37726244
47	0x3d96f2ce	0.0737053
48	0x3dd0b5dd	0.10190938
49	0x3efae6c1	0.49004176
50	0x3e956521	0.29178718
51	0x3e9b94bc	0.30386913
52	0x3ebbc87b	0.36676392
53	0x3e89d794	0.26922286
54	0x3ef656d8	0.48113132
55	0x3e79f1c9	0.2440864
56	0x3edd435f	0.43215463
57	0x3d9c7c54	0.07640901
58	0x3e50f08d	0.20404263
59	0x3edf44a5	0.4360706
60	0xbdb6eebb	-0.08932253
61	0x3ecd284f	0.40069816
62	0x3d27e542	0.04099012
63	0x3ebc6895	0.3679854

layer2.weight f4 [32, 64]
0	0x3dc6b93d	0.097033
1	0xbdf3dec8	-0.119077265
2	0x3dca6fa7	0.09884577
3	0x3e529138	0.20563209
4	0x3dc4f9f1	0.09617985
5	0x3e13620b	0.14392869
6	0x3d9c7591	0.076396115
7	0x3dff998a	0.12480457
8	0xbdaa26b3	-0.083081625
9	0x3d1ef119	0.038804147
10	0x3e823368	0.25429845
11	0xbd5f0e54	-0.054457024
12	0x3e04a764	0.1295448
13	0x3e0e4487	0.13893329
14	0x3e3a08c9	0.18167414
15	0xbcf1ef5d	-0.029533083
16	0xbe9dd873	-0.308292
17	0x3d01c240	0.03167939
18	0x3e98bfcc	0.2983383
19	0x3e6a3bc0	0.22874355
20	0x3e8086e4	0.25102913
21	0xbe12df4d	-0.14342995
22	0x3e0be2d4	0.13660747
23	0x3e0d41e3	0.13794665
24	0x3dd82292	0.10553469
25	0x3dc96129	0.09832985
26	0x3cb21445	0.02173818
27	0x3e981803	0.2970582
28	0x3e055a63	0.13022761
29	0x3e595bdf	0.21226452
30	0x3d74f7a1	0.05980647
31	0x3d24d013	0.040237498
32	0x3e67b60b	0.22628038
33	0x3dd92928	0.10603553
34	0x3dc53ac7	0.096303515
35	0x3e9005b5	0.28129354
36	0x3e1b1607	0.15145122
37	0x3e505ffe	0.20349118
38	0xbe128a6d	-0.14310618
39	0x3e927183	0.28602228
40	0x3d806c9e	0.06270717
41	0x3e4db702	0.20089343
42	0x3e70b5bb	0.23506825
43	0x3e08bd5b	0.13353483
44	0x3e5c2f60	0.21502447
45	0x3dd005a4	0.10157326
46	0x3e3a682f	0.18203805
47	0x3e679f9e	0.22619483
48	0x3cd08382	0.025453333
49	0x3dff0bca	0.124534205
50	0x3e206232	0.15662459
51	0x3d398029	0.04528824
52	0x3e4f6ee8	0.20257151
53	0x3ecc0327	0.39846155
54	0x3e3c2f3b	0.18377392
55	0x3e36bc2a	0.17845216
56	0x3e26e49b	0.16298144
57	0xbe2007f0	-0.15628028
58	0x3e082593	0.13295583
59	0x3e6e8070	0.23291183
60	0xbd02adac	-0.031903908
61	0x3d5e8624	0.054327145
62	0x3d886e98	0.06661719
63	0x3e06e363	0.13172679
64	0x3e24ffbf	0.16113184
65	0xbdfa8f97	-0.12234419
66	0x3da963ca	0.082709864
67	0x3d6078e1	0.05480278
68	0x3d49b148	0.049241334
69	0x3d9ad211	0.07559598
70	0x3e993a24	0.2992717
71	0x3c8dc76b	0.017307004
72	0xbcdaafe2	-0.026695196
73	0x3d81feb1	0.06347407
74	0x3e23512e	0.15948936
75	0x3df7acdf	0.120935194
76	0x3e9a7bed	0.30172673
77	0xbd699d25	-0.05703463
78	0x3e2f35a3	0.17110305
79	0xbda0a430	-0.07843816
80	0xbe48bbb4	-0.19602853
81	0xbdb8612a	-0.090029076
82	0x3e35c075	0.17749198
83	0x3e7940b5	0.2434109
84	0x3e6fdf91	0.23425128
85	0xbe0cdc57	-0.13755928
86	0x3e2bafa7	0.16766225
87	0x3e0d718c	0.13812846
88	0x3d6fa0ae	0.058502845
89	0x3e065e28	0.13121855
90	0x3e0c9ca3	0.13731627
91	0x3e9ef095	0.31042925
92	0x3e816d1c	0.25278556
93	0x3bab370b	0.0052250675
94	0x3e7ca5d5	0.24672635
95	0x3db7da30	0.08977163
96	0x3e9f795b	0.31147274
97	0x3e08a050	0.13342404
98	0x3e24f686	0.16109666
99	0x3e51d925	0.2049299
100	0x3e243f33	0.16039734
101	0x3b44e88f	0.0030045842
102	0xbd31ed18	-0.043439
103	0x3eae666f	0.34062526
104	0x3da755b4	0.081706434
105	0x3ea29198	0.31751704
106	0x3e7d8470	0.24757552
107	0x3e816717	0.25273964
108	0x3cf03883	0.029323822
109	0x3e26f344	0.16303736
110	0x3d7c0eb7	0.06153747
111	0x3e876e63	0.26451406
112	0x3d21cc39	0.039501403
113	0x3e85ea92	0.26155525
114	0x3bd57a97	0.006514858
115	0x3e709619	0.23494758
116	0x3e884a1b	0.26619038
117	0x3ed5476f	0.41656062
118	0x3e247271	0.16059281
119	0x3e14641d	0.14491315
120	0x3e9b41e5	0.3032371
121	0xbd0cdeef	-0.034392294
122	0xbc3eb512	-0.01163985
123	0x3e050386	0.12989625
124	0xbd0d8645	-0.034551878
125	0x3caea231	0.021317573
126	0xbd9ae8af	-0.07563912
127	0x3e90ecdc	0.2830571
128	0x3e0876f2	0.13326624
129	0xbe2b6a2b	-0.16739719
130	0xbd985768	-0.074385464
131	0xbc650098	-0.013977192
132	0x3da0256b	0.07819637
133	0x39e02b94	0.00042757078
134	0x3d1c2f16	0.038130842
135	0x3e4b35a9	0.19844688
136	0xbe34b57b	-0.17647354
137	0xbd05d159	-0.032670353
138	0x3da01573	0.07816591
139	0xbe428dec	-0.18999451
140	0x3e22f491	0.15913607
141	0x3bc35492	0.0059610093
142	0xbdd930b4	-0.106049925
143	0xbe1979f0	-0.14987922
144	0xbebe918f	-0.37220427
145	0xbcd2dfe8	-0.025741532
146	0x3dc90c0f	0.09816753
147	0x3e287a48	0.16452897
148	0x3d82cf45	0.0638719
149	0xbe8ecfb9	-0.27892855
150	0x3dd65b3a	0.10466619
151	0x3e574fd2	0.21026543
152	0xbd63b9a7	-0.055596974
153	0x3d3f75db	0.046743255
154	0xbcd94f97	-0.02652721
155	0x3e854a5b	0.2603329
156	0x3e319150	0.17340589
157	0xbc4d7096	-0.01253905
158	0xbd1c779f	-0.038200017
159	0x3df2d933	0.11857834
160	0x3e43d849	0.19125475
161	0xbe006b1f	-0.12540863
162	0x3e149fbd	0.1451406
163	0x3d56c75f	0.05243623
164	0xbda20d6f	-0.079127185
165	0x3e0d844c	0.13819999
166	0xbec01acb	-0.3752044
167	0x3e4ba132	0.1988571
168	0x3e09d024	0.13458306
169	0x3e55f5e3	0.2089458
170	0x3e304606	0.17214212
171	0x3e8e4cf5	0.2779309
172	0x3c361c7d	0.011115191
173	0x3c8c0c3b	0.017095676
174	0xbc43627e	-0.011925338
175	0x3e2af349	0.16694368
176	0xbde7b0ce	-0.1131302
177	0x3e342bbe	0.17594811
178	0x3dbbe995	0.091754116
179	0x3e5b7555	0.21431477
180	0x3e130add	0.14359613
181	0x3ef8ccf6	0.48593873
182	0x3e5bf469	0.21479954
183	0x3e8f70e6	0.28015822
184	0x3eb58259	0.3545101
185	0xbe2ff8d6	-0.17184767
186	0xbc521f85	-0.012824898
187	0x3e17cf27	0.14825116
188	0xbdfd04bb	-0.12354418
189	0x3d1cfac2	0.03832508
190	0xbe09a064	-0.1344009
191	0x3e58fbf7	0.21189867
192	0x3d8966fd	0.067090966
193	0x3dd555e3	0.10416772
194	0xbb9a965a	-0.0047176303
195	0x3ce0f493	0.027460372
196	0x3c8596a5	0.016307184
197	0x3dbd944e	0.092568025
198	0x3e37c148	0.17944825
199	0x3e61041e	0.21974227
200	0x3d07474b	0.033026975
201	0x3e038478	0.12843502
202	0x3d769ea2	0.060209878
203	0x3dd4d4ad	0.10392127
204	0x3e91b55c	0.2845868
205	0x3e39a70f	0.18130134
206	0x3ae47324	0.0017429334
207	0xbd91a48f	-0.07111465
208	0xbdb1e87e	-0.086869225
209	0x3cb2923f	0.021798251
210	0x3e9fdeb4	0.31224597
211	0x3d4c606c	0.049896643
212	0x3d26bbca	0.040706433
213	0x3d5233ed	0.05131905
214	0x3dd0ddc5	0.10198549
215	0x3e71497a	0.23563185
216	0x3e0791dc	0.13239235
217	0x3d971504	0.07377055
218	0x3e5caee3	0.21551089
219	0x3e4f48d3	0.20242624
220	0x3d2c14ce	0.04201203
221	0xbc8fd9bf	-0.017559884
222	0x3d07ec74	0.033184484
223	0x3d2193c6	0.03944757
224	0x3ec1f959	0.3788555
225	0x3e0520f5	0.13000853
226	0x3d25c795	0.04047354
227	0x3e423414	0.18965179
228	0x3ddde925	0.108354844
229	0x3e0ad36b	0.13557212
230	0xbd49b7ba	-0.04924748
231	0x3e90ac2d	0.2825636
232	0x3e0bf034	0.13665849
233	0x3d913b48	0.07091385
234	0x3e3cb977	0.18430124
235	0x3e04eb39	0.12980355
236	0x3df99500	0.121866226
237	0x3e6a5d67	0.22887193
238	0xbbc7b19c	-0.0060941707
239	0x3e274615	0.16335328
240	0xbcd6e2c0	-0.02623117
241	0x3e166ee7	0.14690743
242	0x3ad0f537	0.001594222
243	0x3dffef3a	0.12496801
244	0x3e2fd215	0.17169984
245	0x3ed09542	0.40738875
246	0x3e3d0ebe	0.18462655
247	0x3d9e3e96	0.07726781
248	0x3e1acd4e	0.1511738
249	0x3d72d3a9	0.059283886
250	0x3dc54542	0.096323505
251	0x3e1664d3	0.14686899
252	0xbd935dfc	-0.071956605
253	0x3e09846c	0.13429421
254	0x3de64b56	0.11244838
255	0x3e6646cb	0.22487943

layer2.bias f4 [32]
0	0x3e858b0d	0.2608265
1	0x3e346de0	0.17620039
2	0x3e6c3830	0.23068309
3	0x3dd2cbf5	0.10292808
4	0x3e4a3939	0.19748391
5	0xbda47330	-0.08029783
6	0xbd73a339	-0.059481833
7	0xbc895a2e	-0.016766634
8	0xbdc1f0ed	-0.09469781
9	0xbe05efa2	-0.13079694
10	0x3d9a2c69	0.07528002
11	0x3cde30d8	0.0271229
12	0xbdac48cb	-0.08412322
13	0xbd3a7dc8	-0.04553011
14	0xbdf64b80	-0.12026119
15	0x3e89e6e5	0.2693397
16	0xbc0662f4	-0.008202303
17	0xbdc768ed	-0.0973681
18	0x3de33ee5	0.110959806
19	0xbc74b7d9	-0.014936411
20	0x3e5f6abf	0.21818064
21	0x3e96e7a1	0.29473594
22	0x3dc9a389	0.09845645
23	0x3e6aeb42	0.22941306
24	0x3e962384	0.2932397
25	0x3e39d427	0.18147336
26	0x3e0e6795	0.13906701
27	0x3e6943b1	0.22779728
28	0x3dab3617	0.08359926
29	0x3e6eb34d	0.23310585
30	0x3e758c64	0.23979336
31	0xbe048c3a	-0.12944117

layer3.weight f4 [16, 32]
0	0x3dad9ad5	0.084767975
1	0xbc995c61	-0.018720808
2	0xbe29aca3	-0.16569762
3	0xbc41f318	-0.011837743
4	0xbdf6279c	-0.12019274
5	0x3dd3efaf	0.103484504
6	0xbe1a9821	-0.15097095
7	0x3df0f7af	0.11765992
8	0x3d8cfd56	0.068842575
9	0x3d7853e2	0.060626872
10	0xbd0e2203	-0.034700405
11	0x3e0bbc98	0.13646162
12	0x3e19bc8a	0.15013328
13	0xbe33e966	-0.17569503
14	0x3e0e0b9e	0.13871619
15	0x3da13e5a	0.07873221
16	0xbca99680	-0.020701647
17	0xbdb9677b	-0.090529405
18	0xbe2c1cf5	-0.16807921
19	0xbe06d2b4	-0.13166314
20	0xbe002a7d	-0.12516208
21	0xbdcb8946	-0.09938292
22	0xbd00771e	-0.0313636
23	0x3d1cfbc0	0.038326025
24	0x3e0d5414	0.13801605
25	0xbd137c36	-0.03600713
26	0xbe2afab9	-0.16697206
27	0xbe167e19	-0.1469654
28	0xbe17f63a	-0.14840022
29	0xbc4de308	-0.0125663355
30	0xbdaf2d65	-0.0855358
31	0x3e075a9b	0.13218157
32	0x3c85bd5d	0.016325647
33	0xbdeb2cf0	-0.114831805
34	0xbde38dd3	-0.11111035
35	0xbe1fea57	-0.15616737
36	0xbe1afa2d	-0.15134497
37	0x3e060a59	0.13089885
38	0xbe25f83c	-0.16207975
39	0xbd1786f8	-0.03699395
40	0x3d348242	0.044069536
41	0x3d48d9dd	0.049035896
42	0xbc051452	-0.0081225205
43	0x3d8267e8	0.06367475
44	0xbe44f48b	-0.1923391
45	0x3caeabb5	0.02132211
46	0x3dca4768	0.09876901
47	0x3dbdde65	0.09270934
48	0x3d3d30aa	0.046188988
49	0x3e014a35	0.12625964
50	0xbcc436a6	-0.02395184
51	0xbc837127	-0.016045166
52	0xbd94b095	-0.07260243
53	0x3cfb2b1f	0.03066021
54	0x3e034d4c	0.12822455
55	0xbdd2c90a	-0.102922514
56	0x3ddda227	0.10821944
57	0x3daa14ad	0.08304725
58	0xbe050204	-0.1298905
59	0xbd73d99c	-0.0595337
60	0xbe0d84be	-0.13820168
61	0xbd8ddce2	-0.06926896
62	0xbd95c509	-0.07312972
63	0x3dae8071	0.08520592
64	0xbe0f332d	-0.13984366
65	0xbd728f99	-0.059218977
66	0x3da5e87d	0.08100984
67	0x3d87b690	0.06626618
68	0x3e0f5bcf	0.13999866
69	0xbd287858	-0.041130394
70	0xbaac27d8	-0.0013134433
71	0xbd3989bb	-0.045297366
72	0x3dafe4bc	0.085885495
73	0xbd6b5c0f	-0.05746084
74	0xbd77aa88	-0.060465366
75	0x3d5698ce	0.05239182
76	0x3c7c724a	0.015408108
77	0xbd6dfbec	-0.05810158
78	0xbe14fe66	-0.1455017
79	0xbdbd10a1	-0.09231687
80	0xbdb06f2a	-0.08614953
81	0xbe15a29a	-0.14612809
82	0x3d2c0e03	0.04200555
83	0xbcad79ee	-0.021176305
84	0xbe1a71fe	-0.15082547
85	0xbe2fdc74	-0.1717394
86	0xbd524ba4	-0.051341668
87	0xbdff8d30	-0.12478101
88	0x3cec2ffe	0.028831478
89	0xbd1bb83a	-0.03801749
90	0xbd4697da	-0.04848466
91	0xbe17a314	-0.14808303
92	0x3e103be9	0.14085354
93	0xbe132b81	-0.14372064
94	0xbde8cc0b	-0.11367043
95	0xbcd1831c	-0.025575213
96	0x3e2bd629	0.16780914
97	0x3dc095c2	0.09403564
98	0x3e9ea630	0.30986166
99	0x3e14f9d6	0.1454843
100	0xbc53db4f	-0.012930705
101	0x3b1171ea	0.0022193142
102	0xbd64b089	-0.05583242
103	0x3e0c2237	0.13684927
104	0x3d4f1bf9	0.050563786
105	0x3cc47700	0.023982525
106	0x3e942758	0.28936267
107	0x3e07e458	0.132707
108	0xbe201818	-0.15634191
109	0xbd997eb8	-0.07494873
110	0x3e159e16	0.14611086
111	0x3e9b3abf	0.30318257
112	0xbf880ad2	-1.0628302
113	0xbf13fff5	-0.57812434
114	0x3df02a1c	0.11726782
115	0xbe19b0da	-0.1500887
116	0x3e9ef76a	0.31048137
117	0xbad44b7c	-0.0016196813
118	0xbdc95c93	-0.0983211
119	0x3d13b00a	0.036056556
120	0xbfa689bf	-1.3010787
121	0x3e005e1b	0.12535898
122	0x3d8879cf	0.06663858
123	0x3e81ee9c	0.25377357
124	0x3e32eaa9	0.17472328
125	0x3d67a96f	0.05655807
126	0x3e3b79fa	0.18308249
127	0xbf71f759	-0.9451805
128	0xbdde4123	-0.108522676
129	0x3df6752c	0.120340675
130	0x3e22be21	0.15892841
131	0xbdb5d14e	-0.08877812
132	0x3b967d1f	0.0045925523
133	0xbdaefa74	-0.08543864
134	0xbd2fb6af	-0.04289883
135	0x3e008986	0.12552461
136	0xbe22cb0e	-0.15897772
137	0xbd0d62eb	-0.034518164
138	0x3d92fe85	0.07177452
139	0x3af2b13b	0.0018515954
140	0x3d8d9040	0.06912279
141	0x3d01c71a	0.03168402
142	0xbdc7114c	-0.09720096
143	0xbdd78ef7	-0.10525315
144	0xbe099949	-0.1343738
145	0xbdd59fb4	-0.104308516
146	0xbe282564	-0.16420513
147	0xbdba907d	-0.0910959
148	0xbd949e60	-0.0725677
149	0x3dc5fa16	0.09666841
150	0xbdc816e1	-0.09769989
151	0x3e23ac0c	0.159836
152	0xbdf2aa23	-0.11848857
153	0xbe26271a	-0.16225854
154	0x3c3b1d89	0.011420616
155	0xbd8105e5	-0.062999524
156	0xbe07f385	-0.13276489
157	0xbb85d983	-0.0040847673
158	0xbded4ccb	-0.11586913
159	0xbb28e7ef	-0.0025773009
160	0xbdb86d17	-0.09005182
161	0x3e04f77f	0.12985037
162	0xbdaa381e	-0.08311485
163	0xbd1fcb08	-0.039011985
164	0x3df0d4b3	0.11759319
165	0xbe1e9620	-0.15486956
166	0xbe2c08a2	-0.16800168
167	0x3e051614	0.12996703
168	0x3d0f3e75	0.034971673
169	0xbddec177	-0.10876744
170	0xbd4a58aa	-0.049400963
171	0xbbba9296	-0.005693744
172	0xbd978605	-0.07398609
173	0x3e26bfed	0.16284151
174	0x3d5621a2	0.05227817
175	0x3de68a62	0.11256863
176	0x3e2d0a8e	0.16898558
177	0xbd6fd9a9	-0.058557186
178	0xbdaa2c3f	-0.083092205
179	0x3deb0ff5	0.11477653
180	0x3c256e06	0.010097032
181	0xbd39e945	-0.04538848
182	0x3da4d050	0.08047545
183	0x3be89af1	0.0070985486
184	0x3d37e293	0.044893812
185	0xbb6c2aaa	-0.0036036172
186	0xbda12776	-0.07868855
187	0x3d86fbc5	0.0659099
188	0xbda9a110	-0.08282673
189	0xbe185266	-0.14875183
190	0xbe23b9d2	-0.15988854
191	0xbdebbf10	-0.11511052
192	0x3e2d739f	0.16938637
193	0x3dc9e2fe	0.098577484
194	0x3dcdf7f1	0.10057057
195	0xbcc46071	-0.023971768
196	0x3e7c75ee	0.24654362
197	0xbdc1d0e4	-0.09463671
198	0x3bc4aee0	0.006002292
199	0xbd9bd24c	-0.0760847
200	0xbc574d04	-0.013140921
201	0x3e2797aa	0.16366449
202	0x3d01c827	0.03168502
203	0xbb413704	-0.0029482255
204	0xbddc4c70	-0.10756767
205	0x3d60bec8	0.054869443
206	0x3da4cf1e	0.08047317
207	0x3e96fbeb	0.29489073
208	0xbf72349f	-0.94611543
209	0xbee8f47a	-0.4549902
210	0x3e1fc1d3	0.15601282
211	0xbe0d63c4	-0.13807589
212	0x3defe843	0.11714222
213	0x3dae7355	0.085180916
214	0xbdee065d	-0.116223074
215	0x3d6016c6	0.05470922
216	0xbf9f4de1	-1.2445642
217	0x3ea23fa6	0.31689185
218	0x3b74bad8	0.0037342813
219	0x3b961393	0.00457997
220	0x3e3b5aa7	0.182963
221	0x3db89af6	0.090139315
222	0x3ca52744	0.020160325
223	0xbf96e049	-1.1787196
224	0xb8cfe14f	-9.912496e-05
225	0x3e9c9867	0.30585024
226	0x3d07f183	0.033189308
227	0x3e9bdd40	0.30442238
228	0x3e87a2e0	0.2649145
229	0xbd719a1c	-0.05898486
230	0xbdfdd6e0	-0.123945
231	0xbdc0f5c0	-0.09421873
232	0x3e021d94	0.12706596
233	0xbe07e922	-0.13272527
234	0x3d7fb5a0	0.06242907
235	0xbda51957	-0.08061474
236	0xbd8db6d3	-0.069196366
237	0xbdfacbba	-0.12245889
238	0xbde8a099	-0.113587566
239	0x3e766d35	0.24065097
240	0xbf7a1bc7	-0.97698635
241	0xbec3bc30	-0.38229513
242	0x3e197ec6	0.14989766
243	0xbe135ca5	-0.1439081
244	0x3e573bf1	0.2101896
245	0x3e99d8d4	0.3004824
246	0xbdbe4133	-0.092897795
247	0x3e649773	0.22323398
248	0xbf936d34	-1.1517701
249	0x3e2c8364	0.16846997
250	0x3e8e1778	0.2775228
251	0x3e77a63f	0.24184512
252	0x3e8d5dc8	0.27610612
253	0x3e9b2571	0.30302003
254	0x3eaca6de	0.3372106
255	0xbf5d0aeb	-0.86344784

layer3.bias f4 [16]
0	0xbda6138f	-0.08109199
1	0x3d85db36	0.06535952
2	0xbcbd4760	-0.023105323
3	0x3deaf394	0.1147224
4	0xbe177107	-0.1478921
5	0xbe1d58e6	-0.15365943
6	0x3e7f44a3	0.24928527
7	0x3e9e5a40	0.3092823
8	0x3d44159d	0.047872175
9	0xbdead816	-0.11466996
10	0x3ea623a7	0.32449076
11	0x3c1bba2a	0.009504834
12	0xbd093464	-0.03349723
13	0x3d935d29	0.07195503
14	0xbdda930c	-0.10672578
15	0x3e171ae8	0.14756358

output.weight f4 [1, 16]
0	0x3e20ba14	0.15695983
1	0xbd874343	-0.06604626
2	0xbdba7044	-0.09103444
3	0x3ec639d0	0.38715982
4	0xbe529fe4	-0.20568806
5	0x3dabb5ac	0.083842605
6	0x3e812b38	0.25228286
7	0x3ed932f6	0.42421693
8	0xbd04c50d	-0.032414485
9	0x3d4af680	0.049551487
10	0x3e903280	0.28163528
11	0xbcf427d9	-0.029804157
12	0xbca9bd8d	-0.020720268
13	0x3eb85ecb	0.3600982
14	0xbb553aa1	-0.0032536166
15	0x3e902d42	0.2815953
